model.pt (torch, 75255 bytes, 8 tensors)

conv1.weight f4 [16, 3, 3, 3]
0.065907836 -0.06634212 0.12257168 0.17108487 0.07898816 0.06774046 0.033834565 -0.058086857
-0.0118571725 0.00070649694 -0.19829576 -0.141822 -0.11425645 -0.19326438 -0.05778968 0.097930215
0.03855835 0.15567964 -0.26729807 -0.2364704 0.026257463 -0.10596863 -0.31234834 -0.14956789
-0.038149383 -0.090078674 -0.19231468 -0.22204253 -0.113992155 -0.07934933 0.01558116 -0.078925595
-0.061483417 0.17027262 -0.10603629 0.013971283 -0.18478106 -0.026615625 -0.12515078 0.020010656
0.14759623 -0.0949139 0.038246382 -0.30533195 0.08849353 0.17466246 0.07392333 0.11610738
0.08959797 0.07876179 0.064887084 0.038712684 0.003370429 0.004810938 0.15058662 -0.092821695
0.057068966 -0.31774706 -0.1263858 -0.046210576 -0.037406217 -0.03931546 -0.03164335 0.13359205
-0.059645098 0.023684364 -0.18413742 0.07893078 0.17833413 -0.029450366 0.22885439 -0.20369254
0.19026613 -0.14523968 -0.12739325 -0.025479715 -0.0047901263 0.10347167 0.032538567 0.13511115
-0.011815913 0.23064382 0.21186434 0.064618506 0.26163247 0.12692018 0.08273411 0.13552012
0.13771102 0.17544809 0.07545356 0.15394877 0.117322154 -0.09128171 0.20161435 0.058461
0.08389985 0.20586959 -0.22526428 -0.19267645 -0.035023186 -0.0757472 0.10863246 0.062335026
-0.22357124 0.019009197 -0.20168853 -0.025473898 0.06666961 -0.06558257 -0.15556839 -0.05767087
0.013194304 -0.015956672 0.18087319 -0.007655743 -0.03799379 0.086520396 -0.05977843 0.009249824
-0.10604663 0.016505212 -0.095037565 0.09823783 -0.18859124 0.21811563 0.16064747 -0.15524192
0.16782002 0.10905725 0.23694617 -0.15107235 -0.109377645 -0.03026413 0.05003269 0.18551296
0.2881034 0.14529486 0.33258486 0.11083588 0.15617448 0.080554694 0.18785998 0.20507811
-0.46575242 -0.3511712 -0.4537041 -0.20534806 -0.43515268 -0.22691587 -0.4507833 -0.3255551
-0.44616118 0.09306579 0.16111492 0.087629944 0.20052834 0.08238377 0.13070111 0.08853195
0.18773456 0.083784506 -0.09944779 -0.01330601 -0.08207452 0.038529407 0.13148822 -0.06769559
-0.16856584 -0.06614083 -0.11985152 -0.028083213 -0.21585701 -0.19573946 -0.103481755 -0.11229305
-0.025752762 -0.08612538 0.031852886 -0.042286064 -0.004076741 0.09956767 -0.061924223 0.075609125
0.079628065 -0.11202148 -0.11867147 -0.013442287 0.15390962 0.061738655 -0.11712032 -0.030451113
0.01895204 -0.14688961 -0.04006082 0.051044907 0.012204036 0.0090057505 0.05304971 0.023698283
0.17691101 -0.08032206 -0.234426 -0.22103788 -0.1924685 0.013625628 0.15980026 0.13650146
-0.005311622 0.08208945 0.19905686 0.048918627 -0.020812811 0.2109868 0.21709706 0.10554585
-0.23199527 0.03262878 0.18519549 -0.16672495 -0.0010568332 0.10145751 0.18902604 0.15504223
-0.0032552946 -0.053444214 0.07512027 0.24616045 0.11354028 -0.094989054 0.30067298 0.33470243
-0.09280916 0.23980941 -0.08157176 -0.025331015 -0.31242016 -0.062668346 -0.36315918 -0.017722163
0.12207087 -0.33837187 -0.094288744 -0.067720175 -0.4058382 0.25579518 -0.14813039 -0.0016932948
0.16070786 0.050421793 0.2627832 -0.26487535 0.031644125 -0.24871239 0.26899362 0.19801183
00000000: b0fa 863d 61de 87bd dc06 fb3d df30 2f3e
00000010: 8bc4 a13d 83bb 8a3d 1d96 0a3d 7cec 6dbd
00000020: 9644 42bc 3534 393a 0b0e 4bbe c939 11be
00000030: 49ff e9bd 19e7 45be dfb4 6cbd a38f c83d
00000040: 5cef 1d3d 7c6a 1f3e 4bdb 88be 4c25 72be
00000050: e419 d73c 1506 d9bd 1fec 9fbe 5328 19be
00000060: 8742 1cbd 2b7b b8bd 24ee 44be 1e5f 63be
00000070: b874 e9bd e781 a2bd 1f48 7f3c bea3 a1bd
00000080: 09d6 7bbd f25b 2e3e 8e29 d9bd cfe7 643c
00000090: 3f37 3dbe 0309 dabc 8727 00be 63ed a33c
000000a0: 7723 173e 3862 c2bd 3da8 1c3d 7854 9cbe
000000b0: 193c b53d b7da 323e 1d65 973d b5c9 ed3d
000000c0: 247f b73d dd4d a13d 85e3 843d 3191 1e3d
000000d0: 6ae2 5c3b 13a5 9d3b 6133 1a3e 4d19 bebd
000000e0: 26c1 693d beaf a2be 476b 01be 4d47 3dbd
000000f0: 4337 19bd 3f09 21bd 759c 01bd 5bcc 083e
00000100: 6b4e 74bd b605 c23c 858e 3cbe 76a6 a13d
00000110: 399d 363e e541 f1bc ce58 6a3e c794 50be
00000120: 20d5 423e b6b9 14be 6073 02be d6ba d0bc
00000130: 7ef6 9cbb f4e8 d33d 2947 053d 945a 0a3e
00000140: 8897 41bc e52d 6c3e f7f2 583e b556 843d
00000150: b1f4 853e 5df7 013e 8070 a93d c9c5 0a3e
00000160: 1e04 0d3e aaa8 333e 6587 9a3d bfa4 1d3e
00000170: 9946 f03d e8f1 babd fe73 4e3e cd74 6f3d
00000180: afd3 ab3d 7acf 523e aeab 66be fa4c 45be
00000190: 7974 0fbd 5921 9bbd b27a de3d 0353 7f3d
000001a0: dcef 64be 2db9 9b3c 7087 4ebe a3ae d0bc
000001b0: 148a 883d 2850 86bd 524d 1fbe 4a38 6cbd
000001c0: ec2c 583c 91b7 82bc d236 393e 07dd fabb
000001d0: 609f 1bbd 9b31 b13d 3ada 74bd 938c 173c
000001e0: fa2e d9bd f035 873c 0ea3 c2bd ea30 c93d
000001f0: 101e 41be b459 5f3e c580 243e bdf7 1ebe
00000200: 03d9 2b3e 6859 df3d 04a2 723e b6b2 1abe
00000210: 6301 e0bd 7bec f7bc 14ef 4c3d 1cf7 3d3e
00000220: 4a82 933e 2dc8 143e 9048 aa3e ecfd e23d
00000230: 34ec 1f3e dcf9 a43d 5e5e 403e ffff 513e
00000240: 1a77 eebe b6cc b3be e74b e8be c346 52be
00000250: 55cc debe a25c 68be 12cd e6be 28af a6be
00000260: 3d6f e4be 4799 be3d 4ffb 243e 5477 b33d
00000270: 4d57 4d3e d2b8 a83d 83d6 053e 3d50 b53d
00000280: 7d3d 403e 3697 ab3d 48ab cbbd 7301 5abc
00000290: b016 a8bd 03d1 1d3d d9a4 063e fca3 8abd
000002a0: 869c 2cbe d874 87bd b774 f5bd c40e e6bc
000002b0: 9f09 5dbe ed6f 48be 3eee d3bd e6f9 e5bd
000002c0: 75f7 d2bc 8162 b0bd 2c78 023d 2734 2dbd
000002d0: 2f96 85bb 22ea cb3d 41a4 7dbd f5d8 9a3d
000002e0: 0a14 a33d 856b e5bd 070a f3bd 0a3d 5cbc
000002f0: 7c9a 1d3e ace1 7c3d c7dc efbd 9d74 f9bc
00000300: 4f41 9b3c 3b6a 16be d016 24bd 7714 513d
00000310: 70f3 473c db8c 133c a74a 593d e722 c23c
00000320: 2928 353e e47f a4bd 5f0d 70be c157 62be
00000330: 7616 45be 073e 5f3c aea2 233e 0ac7 0b3e
00000340: 1d0d aebb 831e a83d 90d5 4b3e e65e 483d
00000350: a17f aabc ec0c 583e b14e 5e3e 6c28 d83d
00000360: 2b90 6dbe c1a5 053d e3a3 3d3e f2b9 2abe
00000370: 7085 8aba f4c8 cf3d 0b90 413e 64c3 1e3e
00000380: c856 55bb 52e8 5abd a8d8 993d 7c11 7c3e
00000390: ce87 e83d 9f89 c2bd cff1 993e 1e5e ab3e
000003a0: bb12 bebd 9990 753e 180f a7bd fd82 cfbc
000003b0: 89f5 9fbe 4358 80bd 00f0 b9be 122e 91bc
000003c0: 4b00 fa3d 143f adbe 751a c1bd e0b0 8abd
000003d0: 06ca cfbe 96f7 823e 7eaf 17be 8cf1 ddba
000003e0: 9a90 243e 1587 4e3d 858b 863e be9d 87be
000003f0: 459d 013d 76ae 7ebe 88b9 893e 9dc3 4a3e

conv1.bias f4 [16]
0.009414086 0.023257691 0.016843243 -0.33949995 -0.00082837883 0.3641179 0.17030036 0.014404206
0.26542652 -0.14218138 0.051491685 0.11524999 0.076485455 0.29835275 -0.055129707 -0.16251065
00000000: 8a3d 1a3c ea86 be3c d7fa 893c f0d2 adbe
00000010: 9027 59ba a96d ba3e 3863 2e3e 9eff 6b3c
00000020: fce5 873e ff97 11be f2e8 523d 3008 ec3d
00000030: 68a4 9c3d b1c1 983e b0cf 61bd 3169 26be

conv2.weight f4 [8, 16, 3, 3]
0.020099072 0.09193727 -0.014292072 0.065535344 -0.06018247 0.13915269 0.05690051 -0.050917126
0.082823925 0.046964552 -0.11992686 0.017953996 -0.0896078 -0.105154924 0.08114398 -0.0669607
0.051196788 -0.05436239 -0.16115929 -0.061964087 -0.04820621 -0.13093248 -0.009614413 -0.1073233
-0.01921195 -0.030494044 -0.0846053 0.12181749 0.10593149 0.09086423 -0.0002228077 0.13786106
0.07050019 0.013165747 -0.017132128 -0.011924795 -0.025304705 -9.215575e-05 0.041766655 -0.038022533
0.04945273 -0.03834988 -0.10325958 -0.050463736 -0.02335051 0.09300384 0.15539463 -0.049745157
0.1660262 -0.0056105577 0.088922285 0.085623085 0.053176425 -0.058283772 -0.02554318 0.08627162
0.038330298 -0.0012379042 0.0485814 -0.010669551 0.0042095543 0.014972578 0.042047616 -0.07785246
-0.08859198 -0.03814967 0.038300462 -0.011983504 0.087336786 -0.068285055 -0.07562741 0.041720342
-0.170621 -0.060927596 -0.13408205 -0.034277923 -0.09842764 -0.13972631 -0.15148741 -0.13552885
-0.10609189 -0.1359104 -0.074456 -0.017034978 -0.10231312 -0.1673532 -0.107176006 -0.14900266
-0.10698199 0.040487476 -0.15612663 0.0011635598 -0.12162894 -0.08677427 -0.1691762 -0.03995215
-0.14552718 -0.13359699 -0.10308955 -0.10121049 -0.10963308 0.01613119 -0.12082636 -0.06734651
0.041094635 -0.033514537 0.029209621 0.06675921 -0.019772975 -0.021202117 -0.11246624 0.008975586
0.064460084 0.027823016 0.04979502 0.03197141 -0.043836873 -0.19408715 -0.17553423 -0.15650947
-0.22095565 -0.20679824 -0.03620975 -0.059152115 -0.16539825 -0.14414488 -0.042595685 -0.07588785
-0.013078007 -0.03683144 -0.04151464 -0.1257782 -0.08967223 -0.20529859 -0.06993267 0.009604943
0.015882317 0.010109545 -0.0870491 -0.0047681425 -0.023310518 -0.10452604 -0.026098706 0.056895178
-0.028544996 0.09508765 -0.017075201 0.068826266 -0.042090345 0.03258036 -0.033475354 -0.0203929
-0.111421235 -0.052377395 -0.035516363 0.042821303 -0.014646265 -0.038362194 -0.025750471 -0.07351168
-0.07105593 -0.06462439 0.040160816 0.04832448 -0.08540101 0.018900137 0.008268539 -0.011716502
-0.022537075 -0.012623531 -0.053761967 -0.0273283 -0.0503634 0.056161445 -0.02588019 0.0052691386
0.12519564 -0.0823554 0.06502409 0.04257908 -0.05197361 -0.04023399 -0.0038482104 0.045639858
0.06444571 0.025259746 -0.014373351 -0.062818624 0.058046684 -0.08160132 0.03263391 0.029257368
-0.07093921 0.0026784064 0.087119 0.0652928 0.1036226 0.028877033 0.08982928 0.060239013
-0.017425932 0.01345971 0.078531295 0.018629514 -0.07813043 0.0016258082 0.033194162 -0.06262893
0.0035144559 -0.012203433 0.038731538 0.045385182 -0.046664756 0.058629278 0.014210543 0.08918713
-0.027743127 0.004183174 0.115977325 -0.056368332 0.10707995 0.11994785 -0.0335431 0.07215896
0.1586971 -0.09745453 -0.003408998 -0.034959428 0.032826852 0.06462806 0.046392567 -0.042599346
0.08093668 0.07620733 0.067117214 0.039280713 0.07504806 0.08613094 0.10911573 -0.08675683
0.0031537246 -0.010555244 -0.07361415 0.036410134 0.0778998 0.022630401 -0.0009480209 -0.053646557
-0.0023671177 0.016551873 -0.041451417 -0.026300063 0.08515299 0.06168188 -0.027220033 -0.028693344
00000000: cfa6 a43c 9b49 bc3d 4b29 6abc 6537 863d
00000010: e581 76bd 0b7e 0e3e 8210 693d 7a8e 50bd
00000020: 979f a93d e75d 403d 379c f5bd 4214 933c
00000030: 4b84 b7bd 775b d7bd d12e a63d b122 89bd
00000040: b9b3 513d 19ab 5ebd f106 25be 0ece 7dbd
00000050: e073 45bd 2a13 06be c585 1dbc 51cc dbbd
00000060: 6162 9dbc a5ce f9bc 8b45 adbd 737b f93d
00000070: 9cf2 d83d 0717 ba3d 7da1 69b9 732b 0d3e
00000080: 6762 903d 25b5 573c ad58 8cbc 3760 43bc
00000090: d04b cfbc be43 c1b8 8313 2b3d 84bd 1bbd
000000a0: f28e 4a3d c414 1dbd c279 d3bd 10b3 4ebd
000000b0: 9249 bfbc cc78 be3d c51f 1f3e 94c1 4bbd
000000c0: c602 2a3e c5d8 b7bb e31c b63d 285b af3d
000000d0: 86cf 593d f7ba 6ebd ee3f d1bc 2daf b03d
000000e0: 3b00 1d3d 2c41 a2ba 4afd 463d 57cf 2ebc
000000f0: 4df0 893b 8b4f 753c 1f3a 2c3d 1c71 9fbd
00000100: b66f b5bd d442 1cbd f2e0 1c3d 7556 44bc
00000110: a1dd b23d 09d9 8bbd 8be2 9abd f3e2 2a3d
00000120: 45b7 2ebe 378f 79bd ce4c 09be 0267 0cbd
00000130: 6e94 c9bd 6a14 0fbe 841f 1bbe 13c8 0abe
00000140: b446 d9bd 192c 0bbe 637c 98bd f08c 8bbc
00000150: 8b89 d1bd a35e 2bbe 187f dbbd 2794 18be
00000160: 6019 dbbd 32d6 253d a9df 1fbe 9782 983a
00000170: 9818 f9bd b5b6 b1bd 873c 2dbe dea4 23bd
00000180: 1405 15be a6cd 08be 9d20 d3bd 7247 cfbd
00000190: 4f87 e0bd 8f25 843c d073 f7bd f8ec 89bd
000001a0: d952 283d 8a46 09bd 0449 ef3c 0db9 883d
000001b0: effa a1bc 10b0 adbc b354 e6bd 560e 133c
000001c0: a603 843d 18ed e33c ddf5 4b3d 74f4 023d
000001d0: 4b8e 33bd c8be 46be 3fbf 33be 0544 20be
000001e0: 3342 62be ebc2 53be ad50 14bd 7d49 72bd
000001f0: 295e 29be b79a 13be d078 2ebd 176b 9bbd
00000200: 2345 56bc 90dc 16bd 410b 2abd 00cc 00be
00000210: 13a6 b7bd cb39 52be dc38 8fbd 0d5e 1d3c
00000220: a21b 823c 81a2 253c cc46 b2bd 143e 9cbb
00000230: b3f5 bebc c011 d6bd f4cc d5bc eb0a 693d
00000240: 32d7 e9bc 50bd c23d 4be1 8bbc c9f4 8c3d
00000250: ed66 2cbd fc72 053d 741d 09bd 030f a7bc
00000260: d130 e4bd ae89 56bd 9b79 11bd 6465 2f3d
00000270: e3f6 6fbc ad21 1dbd a7f2 d2bc 4b8d 96bd
00000280: c585 91bd cb59 84bd ab7f 243d e4ef 453d
00000290: bae6 aebd 76d4 9a3c c478 073c 92f6 3fbc
000002a0: ac9f b8bc edd2 4ebc 8235 5cbd 99df dfbc
000002b0: da49 4ebd 8b09 663d b102 d4bc bda8 ac3b
000002c0: 4933 003e f3a9 a8bd 5a2b 853d 6767 2e3d
000002d0: 48e2 54bd 65cc 24bd 4232 7cbb dcf0 3a3d
000002e0: 1dfc 833d 87ed ce3c 347e 6bbc 0da7 80bd
000002f0: 5cc2 6d3d 981e a7bd 23ab 053d 26ad ef3c
00000300: 9448 91bd 3488 2f3b 726b b23d 3bb8 853d
00000310: 1638 d43d 878f ec3c 6af8 b73d 2fbd 763d
00000320: d4c0 8ebc 1e86 5c3c 04d5 a03d ec9c 983c
00000330: d902 a0bd 1219 d53a 9af6 073d 9943 80bd
00000340: c952 663b e8f0 47bc f6a4 1e3d d0e5 393d
00000350: 8b23 3fbd 4125 703d 56d3 683c bea7 b63d
00000360: 8e45 e3bc 0213 893b 8585 ed3d 7be2 66bd
00000370: bc4c db3d 38a7 f53d 7d64 09bd 14c8 933d
00000380: 7e81 223e 3e96 c7bd 7f69 5fbb 9e31 0fbd
00000390: 7375 063d b75b 843d 2206 3e3d a77c 2ebd
000003a0: 21c2 a53d 9712 9c3d c074 893d d0e4 203d
000003b0: ccb2 993d 6b65 b03d 1178 df3d 91ad b1bd
000003c0: b8ae 4e3b e7ef 2cbc 04c3 96bd cb22 153d
000003d0: ee89 9f3d 6463 b93c 9b84 78ba 7ebc 5bbd
000003e0: a521 1bbb cb97 873c f6c8 29bd 3b73 d7bc
000003f0: b164 ae3d 24a6 7c3d 8cfc debc 4e0e ebbc

conv2.bias f4 [8]
-0.040657934 -0.002547847 -0.18569 -0.04127851 -0.03806086 0.04757593 -0.27445683 0.14768305
00000000: ef88 26bd c8f9 26bb 8525 3ebe a813 29bd
00000010: b4e5 1bbd fade 423d 9b85 8cbe 3a3a 173e

fc1.weight f4 [32, 512]
-0.0216161 0.01774769 0.047731202 0.031533606 0.02992129 0.037224744 0.019914117 -0.044533823
0.023562206 0.019542743 -0.022913309 -0.019650672 0.016064132 -0.002809628 -0.051017623 0.045180485
0.001444414 -0.03395363 0.01929029 -0.018424382 0.025652064 -0.05412872 -0.053608388 -0.021297185
-0.017238578 -0.022105709 -0.043013927 0.00054977584 -0.052898407 -0.000565611 0.031450167 0.016782355
-0.035365418 0.019347936 -0.057050813 -0.01855227 -0.017661128 -0.05428417 -0.004561052 0.0032352505
0.017556041 0.026882432 -0.023112196 -0.02489415 -0.048253473 -0.003840354 -0.013449869 0.002970207
0.013653865 -0.032931227 -0.014895874 0.015879028 -0.0322774 -0.026040304 -0.025509076 -0.019292835
-0.03678746 0.015051807 0.03726015 0.028810127 -0.017235778 -0.00947276 -0.034655277 -0.023428546
-0.0014090254 0.008384238 -0.0264901 -0.009150932 0.0017321002 -0.014859811 0.026848359 0.008981424
0.02488707 0.004571105 -0.031394992 -0.036788445 0.021781947 0.008860498 0.0274362 0.02482503
0.015677448 -0.02836238 -0.005525717 0.03831951 0.015251586 -0.019760003 0.011005371 -0.021743394
-0.008760772 0.006903333 -0.018357988 0.036892008 -0.031016862 -0.0048945076 -0.03227662 -0.020028349
-0.029680738 -0.004719593 -0.017031256 0.003028629 -0.014590077 0.032406162 -0.0010458843 -0.010870697
0.03529841 0.0031831677 -0.025092151 -0.016510645 -0.023915973 0.036910765 0.024033586 -0.014296034
-0.04500375 -0.016099997 0.024623757 -0.013336105 -0.044460863 -0.04310891 0.032915507 0.02658988
0.0032863042 0.0072609666 0.008339148 -0.0007486427 -0.0043654125 -0.009957947 -0.00085466896 0.0025011597
-0.027745668 0.041018423 -0.007404012 -0.036221143 0.03627017 -0.04109538 0.012350057 0.038013037
0.015948923 -0.037650544 -0.026263885 -0.042287726 0.029060911 0.015194665 -0.027492087 -0.036396597
0.032571435 0.013531598 0.006504485 0.054385975 -0.021492856 0.022640403 0.0058465265 -0.024898086
-0.017768683 0.033989236 0.0046369773 -0.013868386 -0.010730576 -0.033428557 0.01749282 -0.0140035795
0.023144832 -0.0137711745 0.0028174869 0.044127308 -0.017481517 0.038655918 -0.011065424 0.032752834
0.01523157 -0.04047897 -0.031142408 0.0024708179 -0.007848371 0.014529607 0.031936582 0.02727526
-0.03222044 0.029573824 -0.024032233 -0.01259582 -0.037811875 0.005255057 -0.0048222984 -0.009230368
-0.03538793 0.020320818 -0.038194165 -0.053334244 -0.019579504 -0.046630617 0.034373105 -0.03663655
0.025485175 -0.02748651 -0.027310785 0.029507326 -0.040913794 -0.020310344 -3.1377946e-05 -0.02418007
0.02685494 -0.0072997506 0.016651036 -0.024935802 0.04023198 -0.013133499 -0.036891527 -0.0485178
0.0027182058 -0.037960235 0.00946829 -0.028787998 -0.0059439386 -0.046956055 0.0057449182 0.034051597
0.0056209466 0.009997191 0.04135844 -0.026495742 0.0062492816 -0.018304246 0.04004384 -0.031154756
0.01573357 -0.0253913 0.018996347 -0.008386314 0.011614018 0.010691807 -0.00289737 0.021293262
-0.008655933 0.025585651 0.014884505 0.047114167 -0.024954319 0.02115086 0.020341465 0.017865673
-0.033961434 0.043844305 -0.01942596 -0.030791214 0.011583304 -0.045503248 -0.004679788 -0.008912352
-0.047202785 0.018687647 -0.0069211517 0.02164438 -0.052934263 0.030209146 0.008219949 0.040074576
00000000: 3f14 b1bc 9b63 913c cb81 433d 6229 013d
00000010: 7e1d f53c f978 183d ee22 a33c 1969 36bd
00000020: 8705 c13c 1a18 a03c b1b4 bbbc 72fa a0bc
00000030: ed98 833c bc21 38bb dbf7 50bd 2c0f 393d
00000040: 7e52 bd3a f612 0bbd ac06 9e3c bbee 96bc
00000050: 4724 d23c 14b6 5dbd 7894 5bbd 6f77 aebc
00000060: eb37 8dbc 0817 b5bc 5f2f 30bd d51e 103a
00000070: 00ac 58bd 8345 14ba e4d1 003d 267b 893c
00000080: 54db 10bd 907f 9e3c 1dae 69bd eefa 97bc
00000090: 12ae 90bc 1459 5ebd e174 95bb 7f06 543b
000000a0: b0d1 8f3c 8c38 dc3c ca55 bdbc d1ee cbbc
000000b0: 6fa5 45bd 73ae 7bbb d75c 5cbc cea7 423b
000000c0: 76b4 5f3c e5e2 06bd d30d 74bc bc14 823c
000000d0: 4f35 04bd 7a52 d5bc 69f8 d0bc 020c 9ebc
000000e0: 73ae 16bd db9b 763c 199e 183d 3703 ec3c
000000f0: 0c32 8dbc a333 1bbc b1f2 0dbd 39ed bfbc
00000100: 0caf b8ba 0b5e 093c c401 d9bc caed 15bc
00000110: a307 e33a 9176 73bc 17f1 db3c d326 133c
00000120: f8df cb3c 35c9 953b 0998 00bd 7baf 16bd
00000130: 0e70 b23c 9f2b 113c e2c1 e03c dc5d cb3c
00000140: fe6d 803c 3958 e8bc 1311 b5bb ebf4 1c3d
00000150: cae1 793c bbdf a1bc df4f 343c 341f b2bc
00000160: 5789 0fbc 5b35 e23b 7e63 96bc 131c 173d
00000170: 1317 febc 1b62 a0bb 7d34 04bd 7e12 a4bc
00000180: 0525 f3bc d1a6 9abb 2285 8bbc f77b 463b
00000190: 380b 6fbc 53bc 043d 0e16 89ba 021b 32bc
000001a0: 1195 103d b19c 503b 0e8e cdbc 5541 87bc
000001b0: 6eeb c3bc be2f 173d 15e2 c43c ea39 6abc
000001c0: da55 38bd 24e4 83bc c3b7 c93c ae7f 5abc
000001d0: 981c 36bd f892 30bd 69d2 063d 05d3 d93c
000001e0: 095f 573b 67ed ed3b eca0 083c 9040 44ba
000001f0: bc0b 8fbb a826 23bc dd0b 60ba 7fea 233b
00000200: e24a e3bc ef02 283d 5b9d f2bb 9f5c 14bd
00000210: 0890 143d a153 28bd e557 4a3c 8fb3 1b3d
00000220: 51a7 823c 7537 1abd 5c27 d7bc e535 2dbd
00000230: 2611 ee3c 0bf3 783c 1637 e1bc 9914 15bd
00000240: a069 053d a3b3 5d3c 9323 d53b d4c3 5e3d
00000250: c911 b0bc 5e78 b93c 3894 bf3b 12f7 cbbc
00000260: a18f 91bc 4c38 0b3d c9f1 973b 3a38 63bc
00000270: 4ccf 2fbc 62ec 08bd 1a4d 8f3c 456f 65bc
00000280: 3b9a bd3c 7ea0 61bc 96a5 383b d6be 343d
00000290: 6635 8fbc ab55 1e3d c14b 35bc d627 063d
000002a0: d68d 793c 47cd 25bd 5d1e ffbc 72ed 213b
000002b0: 7496 00bc 970d 6e3c efcf 023d 5e70 df3c
000002c0: 95f9 03bd ce44 f23c 3fdf c4bc b35e 4ebc
000002d0: a0e0 1abd 9d32 ac3b 5f04 9ebb f83a 17bc
000002e0: eff2 10bd d877 a63c 7c71 1cbd 0275 5abd
000002f0: 3265 a0bc bfff 3ebd d0ca 0c3d 3510 16bd
00000300: 49c6 d03c 642b e1bc deba dfbc 59b9 f13c
00000310: 3995 27bd e161 a6bc d09b 03b8 4815 c6bc
00000320: e4fe db3c bf32 efbb c167 883c 2b46 ccbc
00000330: 4aca 243d e32d 57bc 921b 17bd 9aba 46bd
00000340: ed23 323b 317c 1bbd e320 1b3c cfd4 ebbc
00000350: 5fc5 c2bb fe54 40bd de3f bc3b b079 0b3d
00000360: eb2f b83b 42cb 233c 7867 293d 990d d9bc
00000370: c6c6 cc3b c9f2 95bc 0205 243d 4238 ffbc
00000380: b0e3 803c 6a01 d0bc 3a9e 9b3c c066 09bc
00000390: b948 3e3c b02c 2f3c cde1 3dbb 356f ae3c
000003a0: 9dd1 0dbc 0099 d13c 24de 733c c9fa 403d
000003b0: 006d ccbc 9144 ad3c 25a3 a63c 085b 923c
000003c0: 251b 0bbd 1696 333d 3123 9fbc db3d fcbc
000003d0: e6c7 3d3c 9d61 3abd e858 99bb 1d05 12bc
000003e0: b557 41bd d616 993c d4ca e2bb 8e4f b13c
000003f0: 99d1 58bd 2c79 f73c f7ac 063c 3d25 243d

fc1.bias f4 [32]
-0.01883036 -0.0008502255 -0.0045163585 -0.030155716 0.04357628 0.026182983 0.02483214 0.018258337
-0.008985335 -0.006071157 -0.00013436285 -0.053347703 0.033628885 0.025230693 -0.016182693 0.0012888185
0.0019010239 0.05908622 0.00060716626 0.0022857427 -0.052352868 0.01656165 -0.0485482 -0.0018433593
0.0035089238 -0.027144553 0.024734793 -0.026721925 -0.0023677265 -0.062130388 -0.017453613 0.008638217
00000000: 2142 9abc abe1 5eba f6fd 93bb 1f09 f7bc
00000010: 0b7d 323d b27d d63c c66c cb3c 8292 953c
00000020: 3a37 13bc 8ef0 c6bb c1e3 0cb9 1f83 5abd
00000030: 71be 093d 99b0 ce3c 9191 84bc 93ed a83a
00000040: c72b f93a 6404 723d 3d2a 1f3a 66cc 153b
00000050: f66f 56bd 4cac 873c 7ada 46bd e09c f1ba
00000060: f9f5 653b 415e debc 9fa0 ca3c f0e7 dabc
00000070: dc2b 1bbb 6f7c 7ebd e1fa 8ebc 4f87 0d3c

fc2.weight f4 [2, 32]
-0.03954238 0.11314341 0.18692303 -0.2840334 0.1544332 0.1445915 0.0139382 0.18412352
-0.18094814 0.31899497 -0.20741671 -0.23501311 0.11536994 -0.06808128 -0.25853908 -0.2953745
0.073331445 0.3469974 -0.12921673 0.425465 -0.37295973 0.04656841 -0.056187343 -0.18337052
-0.2745262 -0.23811911 0.20788695 -0.30199605 -0.000275645 -0.380364 -0.25863907 0.34988362
0.2595148 -0.29046077 -0.109775685 0.32801515 0.0020003743 0.14883015 0.11636788 -0.34408796
0.36636734 -0.43483683 0.14332905 0.3484733 0.16346034 -0.22198214 0.43686312 0.23026465
0.1570088 -0.45212 -0.08893152 -0.3285676 0.39971867 0.176864 0.23032178 0.31559575
0.09953844 0.38932797 -0.38732395 0.23702285 -0.11228008 0.47768387 0.12311735 -0.1648369
00000000: 31f7 21bd bbb7 e73d c068 3f3e d36c 91be
00000010: bd23 1e3e cb0f 143e 0c5d 643c e08a 3c3e
00000020: 784a 39be 4f53 a33e 0c65 54be 47a7 70be
00000030: 1347 ec3d 336e 8bbd 3c5f 84be 543b 97be
00000040: cc2e 963d a5a9 b13e 6451 04be 8cd6 d93e
00000050: 94f4 bebe 84be 3e3d b324 66bd 7bc5 3bbe
00000060: b38e 8cbe 7fd5 73be 51e0 543e 3a9f 9abe
00000070: 7284 90b9 12bf c2be 576c 84be f223 b33e
00000080: 20df 843e 46b7 94be 13d2 e0bd 9af1 a73e
00000090: b618 033b ee66 183e 4852 ee3d 4c2c b0be
000000a0: 8094 bb3e efa2 debe dac4 123e 186b b23e
000000b0: 2662 273e 494f 63be 86ac df3e 7fca 6b3e
000000c0: eac6 203e 467c e7be bb21 b6bd 033a a8be
000000d0: eda7 cc3e d61b 353e 79d9 6b3e c495 a13e
000000e0: cfda cb3d ff55 c73e 534f c6be 1eb6 723e
000000f0: 19f3 e5bd fb92 f43e f324 fc3d 01cb 28be

fc2.bias f4 [2]
0.15841213 -0.07914392
00000000: ca36 223e 3516 a2bd
